Model: "sequential_4"
_________________________________________________________________
Layer (type)                 Output Shape              Param #   
=================================================================
conv2d_8 (Conv2D)            (None, 20, 20, 32)        832       
_________________________________________________________________
activation_16 (Activation)   (None, 20, 20, 32)        0         
_________________________________________________________________
conv2d_9 (Conv2D)            (None, 16, 16, 32)        25632     
_________________________________________________________________
activation_17 (Activation)   (None, 16, 16, 32)        0         
_________________________________________________________________
max_pooling2d_4 (MaxPooling2 (None, 8, 8, 32)          0         
_________________________________________________________________
dropout_8 (Dropout)          (None, 8, 8, 32)          0         
_________________________________________________________________
flatten_4 (Flatten)          (None, 2048)              0         
_________________________________________________________________
dense_8 (Dense)              (None, 32)                65568     
_________________________________________________________________
activation_18 (Activation)   (None, 32)                0         
_________________________________________________________________
dropout_9 (Dropout)          (None, 32)                0         
_________________________________________________________________
dense_9 (Dense)              (None, 8)                 264       
_________________________________________________________________
activation_19 (Activation)   (None, 8)                 0         
=================================================================
Total params: 92,296
Trainable params: 92,296
Non-trainable params: 0
_________________________________________________________________
Test accuracy: 0.5614390969276428, Mean Val acc: 85.93475341796875, Test precision: 0.6518643498420715, Mean Val precision: 0.9336325526237488, Test recall: 0.4407144784927368, Mean Val re
…
